…
s="line">10</span><br><span class="line">11</span><br><span class="line">12</span><br><span class="line">13</span><br><span class="line">14</span><br><span class="line">15</span><br><span class="line">16</span><br><span class="line">17</span><br><span class="line">18</span><br><span class="line">19</span><br><span class="line">20</span><br><span class="line">21</span><br><span class="line">22</span><br></pre></td><td class="code"><pre><span class="line">ChatGLMForConditionalGeneration(</span><br><span class="line">  (transformer): ChatGLMModel(</span><br><span class="line">    (word_embeddings): Embedding(<span class="number">150528</span>, <span class="number">4096</span>)</span><br><span class="line">    (layers): ModuleList(</span><br><span class="line">      (<span class="number">0</span>-<span class="number">27</span>): <span class="number">28</span> x GLMBlock(</span><br><span class="line">        (input_layernorm): LayerNorm((<span class="number">4096</span>,), eps=<span class="number">1e-05</span>, elementwise_affine=<span class="literal">True</span>)</span><br><span class="line">        (attention): SelfAttention(</span><br><span class="line">          (rotary_emb): RotaryEmbedding()</span><br><span class="line">          (query_key_value): Linear(in_features=<span class="number">4096</span>, out_features=<span class="number">12288</span>, bias=<span class="literal">True</span>)</span><br><span class="line">          (dense): Linear(in_features=<span class="number">4096</span>, out_features=<span class="number">4096</span>, bias=<span class="literal">True</span>)</span><br><span class="line">        )</span><br><span class="line">        (post_attention_layernorm): LayerNorm((<span class="number">4096</span>,), eps=<span class="number">1e-05</span>, elementwise_affine=<span class="literal">True</span>)</span><br><span class="line">        (mlp): GLU(</span><br><span class="line">          (dense_h_to_4h): Linear(in_features=<span class="number">4096</span>, out_features=<span class="number">16384</span>, bias=<span class="literal">True</span>)</span><br><span class="line">          (dense_4h_to_h): Linear(in_features=<span class="number">16384</span>, out_features=<span class="number">4096</span>, bias=<span class="literal">True</span>)</span><br><span class="line">        )</span><br><span class="line">      )</span><br><span class="line">    )</span><br><span class="line">    (final_layernorm): LayerNorm((<span class="number">4096</span>,), eps=<span class="number">1e-05</span>, elementwise_affine=<span class="literal">True</span>)</span><br><span class="line">  )</span><br><span class="line">  (lm_head): Linear(in_features=<span class="number">4096</span>, out_features=<span class="number">150528</span>, bias=<span class="literal">False</span>)</span><br><span class="line">)</span><br></pre></td></tr></table></figure><p>ChatGLM2的模型结构：</p><figure class="highlight bash"><table><tr><td class="gutter"><pre><span class="line">1</span><br><span class="line">2</span><br><span class="line">3</span><br><span clas
…
n class="line">17</span><br><span class="line">18</span><br><span class="line">19</span><br><span class="line">20</span><br><span class="line">21</span><br><span class="line">22</span><br><span class="line">23</span><br><span class="line">24</span><br><span class="line">25</span><br><span class="line">26</span><br><span class="line">27</span><br><span class="line">28</span><br><span class="line">29</span><br></pre></td><td class="code"><pre><span class="line">ChatGLMForConditionalGeneration(</span><br><span class="line">  (transformer): ChatGLMModel(</span><br><span class="line">    (embedding): Embedding(</span><br><span class="line">      (word_embeddings): Embedding(65024, 4096)</span><br><span class="line">    )</span><br><span class="line">    (rotary_pos_emb): RotaryEmbedding()</span><br><span class="line">    (encoder): GLMTransformer(</span><br><span class="line">      (layers): ModuleList(</span><br><span class="line">        (0-27): 28 x GLMBlock(</span><br><span class="line">          (input_layernorm): RMSNorm()</span><br><span class="line">          (self_attention): SelfAttention(</span><br><span class="line">            (query_key_value): Linear(in_features=4096, out_features=4608, bias=True)</span><br><span class="line">            (core_attention): CoreAttention(</span><br><span class="line">              (attention_dropout): Dropout(p=0.0, inplace=False)</span><br><span class="line">            )</span><br><span class="line">            (dense): Linear(in_features=4096, out_features=4096, bias=False)</span><br><span class="line">          )</span><br><span class="line">          (post_attention_layernorm): RMSNorm()</span><br><span class="line">          (mlp): MLP(</span><br><span class="line">            (dense_h_to_4h): Linear(in_features=4096, out_features=27392, bias=False)</span><br><span class="line">            (dense_4h_to_h): Linear(in_features=13696, out_features=4096, bias=False)</span><br><span class="line">          )</span><br><span class="line">        )</span><br><span class="line">      )</span><br><span class="line">      (final_layernorm): RMSNorm()</span><br><span class="line">    )</span><br><span class="line">    (output_layer): Linear(in_features=4096, out_features=65024, bias=False)</span><br><span class="line">  )</span><br><span class="line">)</span><br></pre></td></tr></table></figure><p>ChatGLM3的模型结构：</p><figure class="highlight python"><table><tr><td class="gutter"><pre><span class="line">1</span><br><span class="line">2</span><br><span class="line">3</span><br><span class="line">4</span><br><span class="line">5</span><br
…
n class="line">17</span><br><span class="line">18</span><br><span class="line">19</span><br><span class="line">20</span><br><span class="line">21</span><br><span class="line">22</span><br><span class="line">23</span><br><span class="line">24</span><br><span class="line">25</span><br><span class="line">26</span><br><span class="line">27</span><br><span class="line">28</span><br><span class="line">29</span><br></pre></td><td class="code"><pre><span class="line">ChatGLMForConditionalGeneration(</span><br><span class="line">  (transformer): ChatGLMModel(</span><br><span class="line">    (embedding): Embedding(</span><br><span class="line">      (word_embeddings): Embedding(<span class="number">65024</span>, <span class="number">4096</span>)</span><br><span class="line">    )</span><br><span class="line">    (rotary_pos_emb): RotaryEmbedding()</span><br><span class="line">    (encoder): GLMTransformer(</span><br><span class="line">      (layers): ModuleList(</span><br><span class="line">        (<span class="number">0</span>-<span class="number">27</span>): <span class="number">28</span> x GLMBlock(</span><br><span class="line">          (input_layernorm): RMSNorm()</span><br><span class="line">          (self_attention): SelfAttention(</span><br><span class="line">            (query_key_value): Linear(in_features=<span class="number">4096</span>, out_features=<span class="number">4608</span>, bias=<span class="literal">True</span>)</span><br><span class="line">            (core_attention): CoreAttention(</span><br><span class="line">              (attention_dropout): Dropout(p=<span class="number">0.0</span>, inplace=<span class="literal">False</span>)</span><br><span class="line">            )</span><br><span class="line">            (dense): Linear(in_features=<span class="number">4096</span>, out_features=<span class="number">4096</span>, bias=<span class="literal">False</span>)</span><br><span class="line">          )</span><br><span class="line">          (post_attention_layernorm): RMSNorm()</span><br><span class="line">          (mlp): MLP(</span><br><span class="line">            (dense_h_to_4h): Linear(in_features=<span class="number">4096</span>, out_features=<span class="number">27392</span>, bias=<span class="literal">False</span>)</span><br><span class="line">            (dense_4h_to_h): Linear(in_features=<span class="number">13696</span>, out_features=<span class="number">4096</span>, bias=<span class="literal">False</span>)</span><br><span class="line">          )</span><br><span class="line">        )</span><br><span class="line">      )</span><br><span class="line">      (final_layernorm): RMSNorm()</span><br><span class="line">    )</span><br><span class="line">    (output_layer): Linear(in_features=<span class="number">4096</span>, out_features=<span class="number">65024</span>, bias=<span class="literal">False</span>)</span><br><span class="line">  )</span><br><span class="line">)</span><br></pre></td></tr></table></figure>]]></content>
      
      
      <categories>
          
          <category> LLMs </category>
          
      </categories>
      
      
        <tags>
            
…
span class="line">407</span><br><span class="line">408</span><br><span class="line">409</span><br><span class="line">410</span><br><span class="line">411</span><br><span class="line">412</span><br></pre></td><td class="code"><pre><span class="line">EncoderDecoder(</span><br><span class="line">  (encoder): Encoder(</span><br><span class="line">    (layers): ModuleList(</span><br><span class="line">      (0): EncoderLayer(</span><br><span class="line">        (self_attn): MultiHeadAttention(</span><br><span class="line">          (linears): ModuleList(</span><br><span class="line">            (0): Linear(in_features=512, out_features=512, bias=True)</span><br><span class="line">            (1): Linear(in_features=512, out_features=512, bias=True)</span><br><span class="line">            (2): Linear(in_features=512, out_features=512, bias=True)</span><br><span class="line">            (3): Linear(in_features=512, out_features=512, bias=True)</span><br><span class="line">          )</span><br><span class="line">          (dropout): Dropout(p=0.1, inplace=False)</span><br><span class="line">        )</span><br><span class="line">        (feed_forward): PositionwiseFeedForward(</span><br><span class="line">          (w1): Linear(in_features=512, out_features=2048, bias=True)</span><br><span class="line">          (w2): Linear(in_features=2048, out_features=512, bias=True)</span><br><span class="line">          (dropout): Dropout(p=0.1, inplace=False)</span><br><span class="line">        )</span><br><span class="line">        (sublayer): ModuleList(</span><br><span class="line">          (0): SublayerConnection(</span><br><span class="line">            (norm): LayerNorm()</span><br><span class="line">            (dropout): Dropout(p=0.1, inplace=False)</span><br><span class="line">          )</span><br><span class="line">          (1): SublayerConnection(</span><br><span class="line">            (norm): LayerNorm()</span><br><span class="line">            (dropout): Dropout(p=0.1, inplace=False)</span><br><span class="line">          )</span><br><span class="line">        )</span><br><span class="line">      )</span><br><span class="line">      (1): EncoderLayer(</span><br><span class="line">        (self_attn): MultiHeadAttention(</span><br><span class="line">          (linears): ModuleList(</span><br><span class="line">            (0): Linear(in_features=512, out_features=512, bias=True)</span><br><span class="line">            (1): Linear(in_features=512, out_features=512, bias=True)</span><br><span class="line">            (2): Linear(in_features=512, out_features=512, bias=True)</span><br><span class="line">            (3): Linear(in_features=512, out_features=512, bias=True)</span><br><span class="line">          )</span><br><span class="line">          (dropout): Dropout(p=0.1, inplace=False)</span><br><span class="line">        )</span><br><span class="line">        (feed_forward): PositionwiseFeedForward(</span><br><span class="line">          (w1): Linear(in_features=512, out_features=2048, bias=True)</span><br><span class="line">          (w2): Linear(in_features=2048, out_features=512, bias=True)</span><br><span class="line">          (dropout): Dropout(p=0.1, inplace=False)</span><br><span class="line">        )</span><br><span class="line">        (sublayer): ModuleList(</span><br><span class="line">          (0): SublayerConnection(</span><br><span class="line">            (norm): LayerNorm()</span><br><span class="line">            (dropout): Dropout(p=0.1, inplace=False)</span><br><span class="line">          )</span><br><span class="line">          (1): SublayerConnection(</span><br><span class="line">            (norm): LayerNorm()</span><br><span class="line">            (dropout): Dropout(p=0.1, inplace=False)</span><br><span class="line">          )</span><br><span class="line">        )</span><br><span class="line">      )</span><br><span class="line">      (2): EncoderLayer(</span><br><span class="line">        (self_attn): MultiHeadAttention(</span><br><span class="line">          (linears): ModuleList(</span><br><span class="line">            (0): Linear(in_features=512, out_features=512, bias=True)</span><br><span class="line">            (1): Linear(in_features=512, out_features=512, bias=True)</span><br><span class="line">            (2): Linear(in_features=512, out_features=512, bias=True)</span><br><span class="line">            (3): Linear(in_features=512, out_features=512, bias=True)</span><br><span class="line">          )</span><br><span class="line">          (dropout): Dropout(p=0.1, inplace=False)</span><br><span class="line">        )</span><br><span class="line">        (feed_forward): PositionwiseFeedForward(</span><br><span class="line">          (w1): Linear(in_features=512, out_features=2048, bias=True)</span><br><span class="line">          (w2): Linear(in_features=2048, out_features=512, bias=True)</span><br><span class="line">          (dropout): Dropout(p=0.1, inplace=False)</span><br><span class="line">        )</span><br><span class="line">        (sublayer): ModuleList(</span><br><span class="line">          (0): SublayerConnection(</span><br><span class="line">            (norm): LayerNorm()</span><br><span class="line">            (dropout): Dropout(p=0.1, inplace=False)</span><br><span class="line">          )</span><br><span class="line">          (1): SublayerConnection(</span><br><span class="line">            (norm): LayerNorm()</span><br><span class="line">            (dropout): Dropout(p=0.1, inplace=False)</span><br><span class="line">          )</span><br><span class="line">        )</span><br><span class="line">      )</span><br><span class="line">      (3): EncoderLayer(</span><br><span class="line">        (self_attn): MultiHeadAttention(</span><br><span class="line">          (linears): ModuleList(</span><br><span class="line">            (0): Linear(in_features=512, out_features=512, bias=True)</span><br><span class="line">            (1): Linear(in_features=512, out_features=512, bias=True)</span><br><span class="line">            (2): Linear(in_features=512, out_features=512, bias=True)</span><br><span class="line">            (3): Linear(in_features=512, out_features=512, bias=True)</span><br><span class="line">          )</span><br><span class="line">          (dropout): Dropout(p=0.1, inplace=False)</span><br><span class="line">        )</span><br><span class="line">        (feed_forward): PositionwiseFeedForward(</span><br><span class="line">          (w1): Linear(in_features=512, out_features=2048, bias=True)</span><br><span class="line">          (w2): Linear(in_features=2048, out_features=512, bias=True)</span><br><span class="line">          (dropout): Dropout(p=0.1, inplace=False)</span><br><span class="line">        )</span><br><span class="line">        (sublayer): ModuleList(</span><br><span class="line">          (0): SublayerConnection(</span><br><span class="line">            (norm): LayerNorm()</span><br><span class="line">            (dropout): Dropout(p=0.1, inplace=False)</span><br><span class="line">          )</span><br><span class="line">          (1): SublayerConnection(</span><br><span class="line">            (norm): LayerNorm()</span><br><span class="line">            (dropout): Dropout(p=0.1, inplace=False)</span><br><span class="line">          )</span><br><span class="line">        )</span><br><span class="line">      )</span><br><span class="line">      (4): EncoderLayer(</span><br><span class="line">        (self_attn): MultiHeadAttention(</span><br><span class="line">          (linears): ModuleList(</span><br><span class="line">            (0): Linear(in_features=512, out_features=512, bias=True)</span><br><span class="line">            (1): Linear(in_features=512, out_features=512, bias=True)</span><br><span class="line">            (2): Linear(in_features=512, out_features=512, bias=True)</span><br><span class="line">            (3): Linear(in_features=512, out_features=512, bias=True)</span><br><span class="line">          )</span><br><span class="line">          (dropout): Dropout(p=0.1, inplace=False)</span><br><span class="line">        )</span><br><span class="line">        (feed_forward): PositionwiseFeedForward(</span><br><span class="line">          (w1): Linear(in_features=512, out_features=2048, bias=True)</span><br><span class="line">          (w2): Linear(in_features=2048, out_features=512, bias=True)</span><br><span class="line">          (dropout): Dropout(p=0.1, inplace=False)</span><br><span class="line">        )</span><br><span class="line">        (sublayer): ModuleList(</span><br><span class="line">          (0): SublayerConnection(</span><br><span class="line">            (norm): LayerNorm()</span><br><span class="line">            (dropout): Dropout(p=0.1, inplace=False)</span><br><span class="line">          )</span><br><span class="line">          (1): SublayerConnection(</span><br><span class="line">            (norm): LayerNorm()</span><br><span class="line">            (dropout): Dropout(p=0.1, inplace=False)</span><br><span class="line">          )</span><br><span class="line">        )</span><br><span class="line">      )</span><br><span class="line">      (5): EncoderLayer(</span><br><span class="line">        (self_attn): MultiHeadAttention(</span><br><span class="line">          (linears): ModuleList(</span><br><span class="line">            (0): Linear(in_features=512, out_features=512, bias=True)</span><br><span class="line">            (1): Linear(in_features=512, out_features=512, bias=True)</span><br><span class="line">            (2): Linear(in_features=512, out_features=512, bias=True)</span><br><span class="line">            (3): Linear(in_features=512, out_features=512, bias=True)</span><br><span class="line">          )</span><br><span class="line">          (dropout): Dropout(p=0.1, inplace=False)</span><br><span class="line">        )</span><br><span class="line">        (feed_forward): PositionwiseFeedForward(</span><br><span class="line">          (w1): Linear(in_features=512, out_features=2048, bias=True)</span><br><span class="line">          (w2): Linear(in_features=2048, out_features=512, bias=True)</span><br><span class="line">          (dropout): Dropout(p=0.1, inplace=False)</span><br><span class="line">        )</span><br><span class="line">        (sublayer): ModuleList(</span><br><span class="line">          (0): SublayerConnection(</span><br><span class="line">            (norm): LayerNorm()</span><br><span class="line">            (dropout): Dropout(p=0.1, inplace=False)</span><br><span class="line">          )</span><br><span class="line">          (1): SublayerConnection(</span><br><span class="line">            (norm): LayerNorm()</span><br><span class="line">            (dropout): Dropout(p=0.1, inplace=False)</span><br><span class="line">          )</span><br><span class="line">        )</span><br><span class="line">      )</span><br><span class="line">    )</span><br><span class="line">    (norm): LayerNorm()</span><br><span class="line">  )</span><br><span class="line">  (decoder): Decoder(</span><br><span class="line">    (layers): ModuleList(</span><br><span class="line">      (0): DecoderLayer(</span><br><span class="line">        (self_attn): MultiHeadAttention(</span><br><span class="line">          (linears): ModuleList(</span><br><span class="line">            (0): Linear(in_features=512, out_features=512, bias=True)</span><br><span class="line">            (1): Linear(in_features=512, out_features=512, bias=True)</span><br><span class="line">            (2): Linear(in_features=512, out_features=512, bias=True)</span><br><span class="line">            (3): Linear(in_features=512, out_features=512, bias=True)</span><br><span class="line">          )</span><br><span class="line">          (dropout): Dropout(p=0.1, inplace=False)</span><br><span class="line">        )</span><br><span class="line">        (src_attn): MultiHeadAttention(</span><br><span class="line">          (linears): ModuleList(</span><br><span class="line">            (0): Linear(in_features=512, out_features=512, bias=True)</span><br><span class="line">            (1): Linear(in_features=512, out_features=512, bias=True)</span><br><span class="line">            (2): Linear(in_features=512, out_features=512, bias=True)</span><br><span class="line">            (3): Linear(in_features=512, out_features=512, bias=True)</span><br><span class="line">          )</span><br><span class="line">          (dropout): Dropout(p=0.1, inplace=False)</span><br><span class="line">        )</span><br><span class="line">        (feed_forward): PositionwiseFeedForward(</span><br><span class="line">          (w1): Linear(in_features=512, out_features=2048, bias=True)</span><br><span class="line">          (w2): Linear(in_features=2048, out_features=512, bias=True)</span><br><span class="line">          (dropout): Dropout(p=0.1, inplace=False)</span><br><span class="line">        )</span><br><span class="line">        (sublayer): ModuleList(</span><br><span class="line">          (0): SublayerConnection(</span><br><span class="line">            (norm): LayerNorm()</span><br><span class="line">            (dropout): Dropout(p=0.1, inplace=False)</span><br><span class="line">          )</span><br><span class="line">          (1): SublayerConnection(</span><br><span class="line">            (norm): LayerNorm()</span><br><span class="line">            (dropout): Dropout(p=0.1, inplace=False)</span><br><span class="line">          )</span><br><span class="line">          (2): SublayerConnection(</span><br><span class="line">            (norm): LayerNorm()</span><br><span class="line">            (dropout): Dropout(p=0.1, inplace=False)</span><br><span class="line">          )</span><br><span class="line">        )</span><br><span class="line">      )</span><br><span class="line">      (1): DecoderLayer(</span><br><span class="line">        (self_attn): MultiHeadAttention(</span><br><span class="line">          (linears): ModuleList(</span><br><span class="line">            (0): Linear(in_features=512, out_features=512, bias=True)</span><br><span class="line">            (1): Linear(in_features=512, out_features=512, bias=True)</span><br><span class="line">            (2): Linear(in_features=512, out_features=512, bias=True)</span><br><span class="line">            (3): Linear(in_features=512, out_features=512, bias=True)</span><br><span class="line">          )</span><br><span class="line">          (dropout): Dropout(p=0.1, inplace=False)</span><br><span class="line">        )</span><br><span class="line">        (src_attn): MultiHeadAttention(</span><br><span class="line">          (linears): ModuleList(</span><br><span class="line">            (0): Linear(in_features=512, out_features=512, bias=True)</span><br><span class="line">            (1): Linear(in_features=512, out_features=512, bias=True)</span><br><span class="line">            (2): Linear(in_features=512, out_features=512, bias=True)</span><br><span class="line">            (3): Linear(in_features=512, out_features=512, bias=True)</span><br><span class="line">          )</span><br><span class="line">          (dropout): Dropout(p=0.1, inplace=False)</span><br><span class="line">        )</span><br><span class="line">        (feed_forward): PositionwiseFeedForward(</span><br><span class="line">          (w1): Linear(in_features=512, out_features=2048, bias=True)</span><br><span class="line">          (w2): Linear(in_features=2048, out_features=512, bias=True)</span><br><span class="line">          (dropout): Dropout(p=0.1, inplace=False)</span><br><span class="line">        )</span><br><span class="line">        (sublayer): ModuleList(</span><br><span class="line">          (0): SublayerConnection(</span><br><span class="line">            (norm): LayerNorm()</span><br><span class="line">            (dropout): Dropout(p=0.1, inplace=False)</span><br><span class="line">          )</span><br><span class="line">          (1): SublayerConnection(</span><br><span class="line">            (norm): LayerNorm()</span><br><span class="line">            (dropout): Dropout(p=0.1, inplace=False)</span><br><span class="line">          )</span><br><span class="line">          (2): SublayerConnection(</span><br><span class="line">            (norm): LayerNorm()</span><br><span class="line">            (dropout): Dropout(p=0.1, inplace=False)</span><br><span class="line">          )</span><br><span class="line">        )</span><br><span class="line">      )</span><br><span class="line">      (2): DecoderLayer(</span><br><span class="line">        (self_attn): MultiHeadAttention(</span><br><span class="line">          (linears): ModuleList(</span><br><span class="line">            (0): Linear(in_features=512, out_features=512, bias=True)</span><br><span class="line">            (1): Linear(in_features=512, out_features=512, bias=True)</span><br><span class="line">            (2): Linear(in_features=512, out_features=512, bias=True)</span><br><span class="line">            (3): Linear(in_features=512, out_features=512, bias=True)</span><br><span class="line">          )</span><br><span class="line">          (dropout): Dropout(p=0.1, inplace=False)</span><br><span class="line">        )</span><br><span class="line">        (src_attn): MultiHeadAttention(</span><br><span class="line">          (linears): ModuleList(</span><br><span class="line">            (0): Linear(in_features=512, out_features=512, bias=True)</span><br><span class="line">            (1): Linear(in_features=512, out_features=512, bias=True)</span><br><span class="line">            (2): Linear(in_features=512, out_features=512, bias=True)</span><br><span class="line">            (3): Linear(in_features=512, out_features=512, bias=True)</span><br><span class="line">          )</span><br><span class="line">          (dropout): Dropout(p=0.1, inplace=False)</span><br><span class="line">        )</span><br><span class="line">        (feed_forward): PositionwiseFeedForward(</span><br><span class="line">          (w1): Linear(in_features=512, out_features=2048, bias=True)</span><br><span class="line">          (w2): Linear(in_features=2048, out_features=512, bias=True)</span><br><span class="line">          (dropout): Dropout(p=0.1, inplace=False)</span><br><span class="line">        )</span><br><span class="line">        (sublayer): ModuleList(</span><br><span class="line">          (0): SublayerConnection(</span><br><span class="line">            (norm): LayerNorm()</span><br><span class="line">            (dropout): Dropout(p=0.1, inplace=False)</span><br><span class="line">          )</span><br><span class="line">          (1): SublayerConnection(</span><br><span class="line">            (norm): LayerNorm()</span><br><span class="line">            (dropout): Dropout(p=0.1, inplace=False)</span><br><span class="line">          )</span><br><span class="line">          (2): SublayerConnection(</span><br><span class="line">            (norm): LayerNorm()</span><br><span class="line">            (dropout): Dropout(p=0.1, inplace=False)</span><br><span class="line">          )</span><br><span class="line">        )</span><br><span class="line">      )</span><br><span class="line">      (3): DecoderLayer(</span><br><span class="line">        (self_attn): MultiHeadAttention(</span><br><span class="line">          (linears): ModuleList(</span><br><span class="line">            (0): Linear(in_features=512, out_features=512, bias=True)</span><br><span class="line">            (1): Linear(in_features=512, out_features=512, bias=True)</span><br><span class="line">            (2): Linear(in_features=512, out_features=512, bias=True)</span><br><span class="line">            (3): Linear(in_features=512, out_features=512, bias=True)</span><br><span class="line">          )</span><br><span class="line">          (dropout): Dropout(p=0.1, inplace=False)</span><br><span class="line">        )</span><br><span class="line">        (src_attn): MultiHeadAttention(</span><br><span class="line">          (linears): ModuleList(</span><br><span class="line">            (0): Linear(in_features=512, out_features=512, bias=True)</span><br><span class="line">            (1): Linear(in_features=512, out_features=512, bias=True)</span><br><span class="line">            (2): Linear(in_features=512, out_features=512, bias=True)</span><br><span class="line">            (3): Linear(in_features=512, out_features=512, bias=True)</span><br><span class="line">          )</span><br><span class="line">          (dropout): Dropout(p=0.1, inplace=False)</span><br><span class="line">        )</span><br><span class="line">        (feed_forward): PositionwiseFeedForward(</span><br><span class="line">          (w1): Linear(in_features=512, out_features=2048, bias=True)</span><br><span class="line">          (w2): Linear(in_features=2048, out_features=512, bias=True)</span><br><span class="line">          (dropout): Dropout(p=0.1, inplace=False)</span><br><span class="line">        )</span><br><span class="line">        (sublayer): ModuleList(</span><br><span class="line">          (0): SublayerConnection(</span><br><span class="line">            (norm): LayerNorm()</span><br><span class="line">            (dropout): Dropout(p=0.1, inplace=False)</span><br><span class="line">          )</span><br><span class="line">          (1): SublayerConnection(</span><br><span class="line">            (norm): LayerNorm()</span><br><span class="line">            (dropout): Dropout(p=0.1, inplace=False)</span><br><span class="line">          )</span><br><span class="line">          (2): SublayerConnection(</span><br><span class="line">            (norm): LayerNorm()</span><br><span class="line">            (dropout): Dropout(p=0.1, inplace=False)</span><br><span class="line">          )</span><br><span class="line">        )</span><br><span class="line">      )</span><br><span class="line">      (4): DecoderLayer(</span><br><span class="line">        (self_attn): MultiHeadAttention(</span><br><span class="line">          (linears): ModuleList(</span><br><span class="line">            (0): Linear(in_features=512, out_features=512, bias=True)</span><br><span class="line">            (1): Linear(in_features=512, out_features=512, bias=True)</span><br><span class="line">            (2): Linear(in_features=512, out_features=512, bias=True)</span><br><span class="line">            (3): Linear(in_features=512, out_features=512, bias=True)</span><br><span class="line">          )</span><br><span class="line">          (dropout): Dropout(p=0.1, inplace=False)</span><br><span class="line">        )</span><br><span class="line">        (src_attn): MultiHeadAttention(</span><br><span class="line">          (linears): ModuleList(</span><br><span class="line">            (0): Linear(in_features=512, out_features=512, bias=True)</span><br><span class="line">            (1): Linear(in_features=512, out_features=512, bias=True)</span><br><span class="line">            (2): Linear(in_features=512, out_features=512, bias=True)</span><br><span class="line">            (3): Linear(in_features=512, out_features=512, bias=True)</span><br><span class="line">          )</span><br><span class="line">          (dropout): Dropout(p=0.1, inplace=False)</span><br><span class="line">        )</span><br><span class="line">        (feed_forward): PositionwiseFeedForward(</span><br><span class="line">          (w1): Linear(in_features=512, out_features=2048, bias=True)</span><br><span class="line">          (w2): Linear(in_features=2048, out_features=512, bias=True)</span><br><span class="line">          (dropout): Dropout(p=0.1, inplace=False)</span><br><span class="line">        )</span><br><span class="line">        (sublayer): ModuleList(</span><br><span class="line">          (0): SublayerConnection(</span><br><span class="line">            (norm): LayerNorm()</span><br><span class="line">            (dropout): Dropout(p=0.1, inplace=False)</span><br><span class="line">          )</span><br><span class="line">          (1): SublayerConnection(</span><br><span class="line">            (norm): LayerNorm()</span><br><span class="line">            (dropout): Dropout(p=0.1, inplace=False)</span><br><span class="line">          )</span><br><span class="line">          (2): SublayerConnection(</span><br><span class="line">            (norm): LayerNorm()</span><br><span class="line">            (dropout): Dropout(p=0.1, inplace=False)</span><br><span class="line">          )</span><br><span class="line">        )</span><br><span class="line">      )</span><br><span class="line">      (5): DecoderLayer(</span><br><span class="line">        (self_attn): MultiHeadAttention(</span><br><span class="line">          (linears): ModuleList(</span><br><span class="line">            (0): Linear(in_features=512, out_features=512, bias=True)</span><br><span class="line">            (1): Linear(in_features=512, out_features=512, bias=True)</span><br><span class="line">            (2): Linear(in_features=512, out_features=512, bias=True)</span><br><span class="line">            (3): Linear(in_features=512, out_features=512, bias=True)</span><br><span class="line">          )</span><br><span class="line">          (dropout): Dropout(p=0.1, inplace=False)</span><br><span class="line">        )</span><br><span class="line">        (src_attn): MultiHeadAttention(</span><br><span class="line">          (linears): ModuleList(</span><br><span class="line">            (0): Linear(in_features=512, out_features=512, bias=True)</span><br><span class="line">            (1): Linear(in_features=512, out_features=512, bias=True)</span><br><span class="line">            (2): Linear(in_features=512, out_features=512, bias=True)</span><br><span class="line">            (3): Linear(in_features=512, out_features=512, bias=True)</span><br><span class="line">          )</span><br><span class="line">          (dropout): Dropout(p=0.1, inplace=False)</span><br><span class="line">        )</span><br><span class="line">        (feed_forward): PositionwiseFeedForward(</span><br><span class="line">          (w1): Linear(in_features=512, out_features=2048, bias=True)</span><br><span class="line">          (w2): Linear(in_features=2048, out_features=512, bias=True)</span><br><span class="line">          (dropout): Dropout(p=0.1, inplace=False)</span><br><span class="line">        )</span><br><span class="line">        (sublayer): ModuleList(</span><br><span class="line">          (0): SublayerConnection(</span><br><span class="line">            (norm): LayerNorm()</span><br><span class="line">            (dropout): Dropout(p=0.1, inplace=False)</span><br><span class="line">          )</span><br><span class="line">          (1): SublayerConnection(</span><br><span class="line">            (norm): LayerNorm()</span><br><span class="line">            (dropout): Dropout(p=0.1, inplace=False)</span><br><span class="line">          )</span><br><span class="line">  (src_embed): Sequential(</span><br><span class="line">    (0): Embeddings(</span><br><span class="line">      (lut): Embedding(8316, 512)</span><br><span class="line">    )</span><br><span class="line">    (1): PositionalEncoding(</span><br><span class="line">      (dropout): Dropout(p=0.1, inplace=False)</span><br><span class="line">    )</span><br><span class="line">  )</span><br><span class="line">  (tgt_embed): Sequential(</span><br><span class="line">    (0): Embeddings(</span><br><span class="line">      (lut): Embedding(6385, 512)</span><br><span class="line">    )</span><br><span class="line">    (1): PositionalEncoding(</span><br><span class="line">      (dropout): Dropout(p=0.1, inplace=False)</span><br><span class="line">    )</span><br><span class="line">  )</span><br><span class="line">  (generator): Generator(</span><br><span class="line">    (project): Linear(in_features=512, out_features=6385, bias=True)</span><br><span class="line">  )</span><br><span class="line">)</span><br></pre></td></tr></table></figure><h2 id="6-3-Inference"><a href="#6-3-Inference" class="headerlink" title="6.3 Inference"></a>6.3 Inference</h2><p>在这里，我们用生成模型的预测。 我们尝试使用我们的transformer 来记住输入。 正如您将看到的那样，由于模型尚未训练，输出是随机生成的。</p><figure class="highlight python"><table><tr><td class="g
…
